# Ultralytics 🚀 AGPL-3.0 License - https://ultralytics.com/license
#
# LiM-YOLO-RB-W (Reversible Branch, Wide)
# =====================================================================
# Same architecture as LiM-YOLO-RB, but the P4 stage is kept at the
# canonical YOLOv9-E width of 1024 channels (RB narrows it to 512c). The
# auxiliary reversible branch, omitted by the Ultralytics YOLOv9-E port,
# is likewise re-added here following the original WongKinYiu/yolov9
# implementation (https://github.com/WongKinYiu/yolov9). It supplies
# reliable gradients during training and is removed at inference.

# Parameters
nc: 80  # number of classes

# GELAN backbone (simple-bb ends at P4 @1024c; integration chain ends at P4 @1024c)
backbone:
  - [-1, 1, nn.Identity, []]                       # 0
  - [-1, 1, Conv, [64, 3, 2]]                      # 1-P1/2
  - [-1, 1, Conv, [128, 3, 2]]                     # 2-P2/4
  - [-1, 1, RepNCSPELAN4, [256, 128, 64, 2]]       # 3  (simple-bb P2)
  - [-1, 1, ADown, [256]]                          # 4-P3/8
  - [-1, 1, RepNCSPELAN4, [512, 256, 128, 2]]      # 5  (simple-bb P3)
  - [-1, 1, ADown, [512]]                          # 6-P4/16
  - [-1, 1, RepNCSPELAN4, [1024, 512, 256, 2]]     # 7  (simple-bb P4 final, canonical 1024c)

  # CBLinear taps from simple-bb — GN-CBLinear (CBLinear_GN_woSILU = GroupNorm, no SiLU)
  - [1, 1, CBLinear_GN_woSILU, [[64]]]             # 8  - P1 tap
  - [3, 1, CBLinear_GN_woSILU, [[64, 128]]]        # 9  - P2 tap
  - [5, 1, CBLinear_GN_woSILU, [[64, 128, 256]]]   # 10 - P3 tap
  - [7, 1, CBLinear_GN_woSILU, [[64, 128, 256, 512]]]  # 11 - P4 tap

  # Integration chain (CBFuse 4 times; canonical's 5th CBFuse at P5 dropped)
  - [0, 1, Conv, [64, 3, 2]]                       # 12-P1/2
  - [[8, 9, 10, 11, -1], 1, CBFuse, [[0, 0, 0, 0]]]  # 13 - fuse at P1
  - [-1, 1, Conv, [128, 3, 2]]                     # 14-P2/4
  - [[9, 10, 11, -1], 1, CBFuse, [[1, 1, 1]]]      # 15 - fuse at P2
  - [-1, 1, RepNCSPELAN4, [256, 128, 64, 2]]       # 16 (integration P2)
  - [-1, 1, ADown, [256]]                          # 17-P3/8
  - [[10, 11, -1], 1, CBFuse, [[2, 2]]]            # 18 - fuse at P3
  - [-1, 1, RepNCSPELAN4, [512, 256, 128, 2]]      # 19 (integration P3)
  - [-1, 1, ADown, [512]]                          # 20-P4/16
  - [[11, -1], 1, CBFuse, [[3]]]                   # 21 - fuse at P4
  - [-1, 1, RepNCSPELAN4, [1024, 512, 256, 2]]     # 22 (integration P4 final, canonical 1024c)

# GELAN head — auxiliary mini-FPN (reversible branch) + main FPN
head:
  - [7, 1, SPPELAN, [512, 256]]                    # 23 (A4: from simple-bb P4)
  - [-1, 1, nn.Upsample, [None, 2, "nearest"]]     # 24
  - [[-1, 5], 1, Concat, [1]]                      # 25 - cat simple-bb P3 (layer 5)
  - [-1, 1, RepNCSPELAN4, [256, 256, 128, 2]]      # 26 (A3)
  - [-1, 1, nn.Upsample, [None, 2, "nearest"]]     # 27
  - [[-1, 3], 1, Concat, [1]]                      # 28 - cat simple-bb P2 (layer 3)
  - [-1, 1, RepNCSPELAN4, [128, 128, 64, 2]]       # 29 (A2)

  - [22, 1, SPPELAN, [512, 256]]                   # 30 (main P4-SPPELAN, from integration P4)
  - [-1, 1, nn.Upsample, [None, 2, "nearest"]]     # 31
  - [[-1, 19], 1, Concat, [1]]                     # 32 - cat integration P3 (layer 19)
  - [-1, 1, RepNCSPELAN4, [256, 256, 128, 2]]      # 33 (P3 top-down)
  - [-1, 1, nn.Upsample, [None, 2, "nearest"]]     # 34
  - [[-1, 16], 1, Concat, [1]]                     # 35 - cat integration P2 (layer 16)
  - [-1, 1, RepNCSPELAN4, [128, 128, 64, 2]]       # 36 (main P2/4-xsmall, top-down endpoint)

  - [-1, 1, ADown, [128]]                          # 37
  - [[-1, 33], 1, Concat, [1]]                     # 38 - cat head P3 (layer 33)
  - [-1, 1, RepNCSPELAN4, [256, 256, 128, 2]]      # 39 (main P3/8-small)

  - [-1, 1, ADown, [256]]                          # 40
  - [[-1, 30], 1, Concat, [1]]                     # 41 - cat head P4-SPPELAN (layer 30)
  - [-1, 1, RepNCSPELAN4, [512, 512, 256, 2]]      # 42 (main P4/16-medium)

  # DualOBB(A2, A3, A4, main_P2, main_P3, main_P4); aux first, main second; main strides [4,8,16]
  - [[29, 26, 23, 36, 39, 42], 1, DualOBB, [nc, 1]]  # 43
